lstm_stock_model.pth (torch, 210861 bytes, 13 tensors)

lstm.weight_ih_l0 f4 [200, 1]
0.0014394277 -0.02109224 -0.19769646 -0.0038516212 -0.27987614 -0.14618313 0.12888393 -0.082998425
0.023929404 -0.195779 -0.061478145 -0.15814413 -0.11546735 -0.056976583 0.13355356 -0.13679186
-0.11561411 -0.027454479 -0.15665673 -0.037918 -0.27508262 -0.14106773 -0.20347123 -0.16285671
-0.050016988 -0.19835363 -0.22677469 -0.20348816 -0.005463552 -0.15693378 -0.08395275 -0.27458772
-0.12491783 -0.1459999 -0.18909547 0.028180651 0.14005344 0.09826371 -0.12612692 -0.23413984
-0.1040717 -0.23851347 0.06955239 0.12762177 -0.06354477 -0.29208785 0.014674735 -0.069180496
0.061005376 -0.1736029 -0.26340142 -0.24007414 -0.21393819 0.016484963 -0.16892938 -0.11226141
0.064649954 -0.14304216 -0.06388408 -0.19265647 -0.18352327 -0.2597618 -0.16082548 -0.19010293
0.031510435 -0.14000113 -0.06354571 -0.16682957 -0.20533119 -0.2743195 -0.06730458 -0.09537728
0.015159772 -0.32845056 -0.2137436 -0.25979388 -0.25598076 -0.09970291 0.027377276 0.032499824
-0.22816792 -0.23605129 -0.11824661 -0.22998299 -0.03585283 -0.073247895 0.04490019 -0.30035338
-0.20722412 -0.11612568 -0.0986177 -0.26843747 -0.048201878 0.019599512 -0.22581771 -0.30055514
0.076959476 -0.20912482 -0.1521838 -0.29516858 -0.32647732 0.18278678 -0.19515313 -0.32005033
-0.105717264 -0.19409086 -0.487321 0.015598499 -0.29732767 -0.17452674 0.27602342 0.20851032
0.21455593 -0.39182314 -0.4887725 -0.009006089 -0.12559858 -0.28621158 -0.39826602 -0.28167838
-0.07342962 -0.41624102 -0.07196418 -0.32980332 -0.5070139 -0.3333688 -0.15499033 -0.48590907
0.07870753 -0.12858284 0.36581242 -0.09835011 -0.15673487 0.010104223 -0.028238464 -0.3898528
-0.43464544 -0.42404416 0.09031136 0.095768504 0.045971658 -0.33530825 0.49479508 -0.45721042
0.0082594985 0.22983593 0.18826006 0.25498757 0.4319816 -0.34998506 -0.044685416 -0.21404958
-0.15995337 -0.21838276 -0.11196003 -0.2778968 0.3032643 -0.104604214 -0.010959934 -0.19323187
-0.057466958 -0.12513487 -0.1950516 -0.11264629 0.1561212 -0.14615679 -0.25050956 0.030059969
0.009159477 -0.119077235 -0.26242477 -0.1284629 -0.09191486 -0.27362335 0.014182848 -0.14998683
-0.2506871 0.04688111 0.12378851 -0.16710813 -0.1524757 -0.052465025 -0.21591945 -0.256034
-0.07617104 0.092387 0.20824036 -0.03410528 -0.19191962 -0.17264079 -0.18112908 -0.24493621
0.12635127 0.14365016 -0.17107613 -0.24234425 -0.028198503 -0.09851163 0.06835606 -0.018557336
00000000: 2eab bc3a a2c9 acbc f170 4abe 7b6b 7cbb
00000010: ed4b 8fbe 08b1 15be 26fa 033e 14fb a9bd
00000020: 9907 c43c 4a7a 48be 82d0 7bbd 89f0 21be
00000030: 257a ecbd 4760 69bd 44c2 083e 2a13 0cbe
00000040: 17c7 ecbd 37e8 e0bc 9f6a 20be e84f 1bbd
00000050: a1d7 8cbe 0f74 10be c35a 50be e9c3 26be
00000060: 9dde 4cbd 371d 4bbe a037 68be 335f 50be
00000070: 9907 b3bb 40b3 20be 6bef abbd c396 8cbe
00000080: ebd4 ffbd ff80 15be 3ea2 41be 1cdb e63c
00000090: 2b6a 0f3e 7c3e c93d 6a27 01be 5bc2 6fbe
000000a0: 8b23 d5bd e03c 74be 7c71 8e3d 48af 023e
000000b0: c323 82bd 8a8c 95be 4d6e 703c 81ae 8dbd
000000c0: c6e0 793d f5c4 31be 8ddc 86be ffd5 75be
000000d0: 9d12 5bbe 790b 873c d3fb 2cbe 4fe9 e5bd
000000e0: 3267 843d a579 12be a8d5 82bd bd47 45be
000000f0: 86ed 3bbe 80ff 84be 6faf 24be 58aa 42be
00000100: 1611 013d 755c 0fbe 4124 82bd 5fd5 2abe
00000110: 5742 52be 9b73 8cbe fcd6 89bd 2a55 c3bd
00000120: b160 783c ac2a a8be 9adf 5abe b403 85be
00000130: e90f 83be 0a31 ccbd 4f46 e03c 891e 053d
00000140: daa4 69be 6eb7 71be 472b f2bd a980 6bbe
00000150: 6bda 12bd fe02 96bd 43e9 373d ebc7 99be
00000160: 8f32 54be 4dd3 edbd 14f8 c9bd a370 89be
00000170: 556f 45bd 288f a03c c23c 67be 5de2 99be
00000180: ee9c 9d3d d124 56be 12d6 1bbe 5620 97be
00000190: 0928 a7be 752c 3b3e 39d6 47be a3dd a3be
000001a0: 4b82 d8bd c1bf 46be 2382 f9be d990 7f3c
000001b0: 553b 98be 23b7 32be f152 8d3e bb83 553e
000001c0: 8db4 5b3e 0b9d c8be 6440 fabe 468e 13bc
000001d0: ea9c 00be 538a 92be 86e9 cbbe 2638 90be
000001e0: 4562 96bd 8b1d d5be f561 93bd fbdb a8be
000001f0: aacb 01bf 51af aabe c9b5 1ebe 13c9 f8be
00000200: 6a31 a13d 38ab 03be c44b bb3e c86b c9bd
00000210: 1b7f 20be 2f8c 253c 5a54 e7bc c99a c7be
00000220: d989 debe 511c d9be 2af5 b83d 4722 c43d
00000230: c74c 3c3d 86ad abbe c855 fd3e 7c17 eabe
00000240: d952 073c 1c5a 6b3e 3fc7 403e bb8d 823e
00000250: b12c dd3e 3e31 b3be 0e08 37bd d02f 5bbe
00000260: d1ca 23be bb9f 5fbe 4d4b e5bd 7d48 8ebe
00000270: 7545 9b3e bc3a d6bd 4c91 33bc 93de 45be
00000280: 7962 6bbd 5b23 00be 9bbb 47be 19b3 e6bd
00000290: 3cde 1f3e 20aa 15be ca42 80be 5340 f63c
000002a0: a211 163c c4de f3bd 8a5c 86be c78b 03be
000002b0: dc3d bcbd 5c18 8cbe 2d5f 683c 2696 19be
000002c0: 0f5a 80be 6806 403d d584 fd3d 651e 2bbe
000002d0: 9722 1cbe 91e5 56bd fd19 5dbe e316 83be
000002e0: 90ff 9bbd 6535 bd3d f63c 553e fab1 0bbd
000002f0: 9486 44be bfc8 30be e779 39be 8fd0 7abe
00000300: 3a62 013e 0719 133e 952e 2fbe 1729 78be
00000310: 8c00 e7bc 77c0 c9bd 43fe 8b3d 8e05 98bc

lstm.weight_hh_l0 f4 [200, 50]
-0.23580404 -0.05960073 0.040334992 -0.1638932 -0.052867733 -0.07221098 -0.1132071 -0.02995636
0.005916842 0.056754347 0.09361836 0.16234967 -0.04577584 -0.16927584 -0.14414692 0.16834621
0.043425303 -0.025034053 -0.08092814 -0.10491717 -0.1331023 0.036183424 -0.06328111 -0.0555601
-0.29502872 0.018678283 0.009724778 -0.15342282 -0.27164418 -0.11859481 -0.047529876 -0.019054687
0.058331735 0.11454213 0.11294215 -0.16291925 -0.08254339 -0.21252802 -0.11376228 -0.103889555
0.07647745 -0.08757252 0.13361993 -0.23619857 0.06843257 -0.012430526 -0.09043819 0.07234665
0.11225021 0.07231448 -0.08677941 -0.11930776 -0.046882488 -0.23668748 -0.048189495 -0.08997238
0.16203998 0.021457277 0.022998296 0.15110257 0.19476756 0.003705692 0.18333241 -0.13353628
0.042295907 0.09045815 -0.011645683 0.0924743 -0.09743234 -0.15163858 0.054315686 -0.12895162
0.17733242 0.057703655 0.07708232 -0.10458029 -0.26248166 -0.09510311 -0.011439723 -0.15233338
0.02765293 -0.21135171 -0.024321498 -0.09931743 0.016754791 -0.13787034 -0.09913146 0.043047853
0.19051081 0.0064733583 -0.082107335 -0.17376865 -0.050316654 -0.20854372 0.1485389 0.07528153
-0.22884977 0.07043706 0.024636526 -0.07359903 -0.07658917 -0.013880873 -0.12483731 -0.25150037
-0.1534974 0.10414363 -0.10951335 0.096172094 -0.011164641 -0.017919922 0.12517446 0.13597776
-0.07949867 -0.0028436808 0.030360479 0.070772134 0.11600281 0.14500204 -0.13302445 -0.02032172
-0.12997246 -0.08323162 0.069982655 0.059415624 -0.22120005 -0.1688318 -0.16385889 -0.30977246
-0.24874395 -0.0071836766 0.1427712 -0.06623353 -0.119096644 -0.10748539 0.08376859 -0.2736696
-0.110121675 -0.032998044 -0.082382925 -0.0023714278 0.018544346 -0.037837412 0.049905688 -0.23593126
-0.039547034 -0.01628898 0.16833138 -0.057176236 0.04729232 0.03644394 -0.044741217 0.07834058
0.05119085 -0.12546852 -0.22021368 -0.011920419 -0.013017103 0.027971644 -0.047280893 0.06218807
-0.12134376 -0.02745544 -0.07802997 -0.059334345 -0.047945056 0.092358015 0.071601 -0.14543794
-0.28481722 -0.03825411 0.04853716 0.028245773 -0.14574222 -0.012415584 -0.23661062 -0.12984201
0.032671522 -0.061447565 -0.030445844 -0.045829095 0.13232633 -0.17762789 0.0072016018 0.16409498
-0.023130687 -0.03786026 -0.23563603 -0.16865927 0.034088977 -0.06192412 0.035969075 -0.016531909
0.2636768 -0.03622296 0.13278884 -0.072221525 -0.037844423 0.0075995717 0.2455933 -0.08009889
-0.08771005 0.08134357 -0.012156906 -0.16403094 -0.0470153 -0.08578888 -0.0781825 0.033923417
-0.081500836 0.099987626 0.023358585 0.03537386 0.20244443 0.009356987 0.06421853 -0.10156532
-0.042924184 0.14203724 -0.18633364 -0.10950961 -0.018130813 -0.02539342 -0.05509682 0.039201982
0.028498048 -0.02584139 -0.15363549 -0.2537809 -0.16457488 0.042192414 0.1048657 -0.13156487
-0.045422446 0.049333632 -0.056046642 -0.031769615 -0.051120527 -0.05540931 0.01883302 0.039736424
-0.08702488 0.017040186 0.08079113 0.031797733 0.23138966 0.053300954 -0.18447542 0.17343591
0.19531363 -0.10506699 -0.003183186 -0.13762836 -0.10180727 -0.06570341 0.02498355 0.1041848
00000000: 9d76 71be e51f 74bd 4e36 253d 9ed3 27be
00000010: d68b 58bd 5ae3 93bd 20d9 e7bd 0a67 f5bc
00000020: 11e2 c13b 3f77 683d fcba bf3d fe3e 263e
00000030: 727f 3bbd a556 2dbe 409b 13be f362 2c3e
00000040: bbde 313d 3714 cdbc a7bd a5bd d0de d6bd
00000050: f84b 08be 1235 143d 8799 81bd fd92 63bd
00000060: 010e 97be 3303 993c ad54 1f3c df1a 1dbe
00000070: f214 8bbe d6e1 f2bd b0ae 42bd 9318 9cbc
00000080: 42ed 6e3d 1095 ea3d 374e e73d 4ed4 26be
00000090: 820c a9bd f2a0 59be 33fc e8bd 0cc4 d4bd
000000a0: 36a0 9c3d 3959 b3bd aad3 083e 0ade 71be
000000b0: 6026 8c3d 68a9 4bbc a837 b9bd 7b2a 943d
000000c0: 70e3 e53d 9d19 943d 67b9 b1bd a057 f4bd
000000d0: da07 40bd 345e 72be 5962 45bd 7043 b8bd
000000e0: cfed 253e 2cc7 af3c ec66 bc3c a2ba 1a3e
000000f0: 2671 473e 32db 723b 7ebb 3b3e bcbd 08be
00000100: 793e 2d3d 1f42 b93d 89cd 3ebc 2a63 bd3d
00000110: 9b8a c7bd 2547 1bbe 207a 5e3d e50b 04be
00000120: a196 353e ab5a 6c3d 56dd 9d3d 312e d6bd
00000130: ff63 86be 6bc5 c2bd ad6d 3bbc 48fd 1bbe
00000140: 6688 e23c 956c 58be e13d c7bc f066 cbbd
00000150: 5841 893c e22d 0dbe 6f05 cbbd f252 303d
00000160: 4415 433e 771e d43b e427 a8bd 69f0 31be
00000170: d618 4ebd 7c8c 55be 951a 183e 342d 9a3d
00000180: 9857 6abe 4e41 903d 8ad2 c93c 17bb 96bd
00000190: c8da 9cbd 9a6c 63bc b4aa ffbd a8c4 80be
000001a0: 6c2e 1dbe 4149 d53d 8948 e0bd e0f5 c43d
000001b0: e6eb 36bc cdcc 92bc bc2d 003e c13d 0b3e
000001c0: 33d0 a2bd 0c5d 3abb 8ab6 f83c fbf0 903d
000001d0: e292 ed3d 6a7b 143e 9037 08be bc79 a6bc
000001e0: 8017 05be 5775 aabd 1153 8f3d cc5d 733d
000001f0: 4482 62be 3ee2 2cbe a0ca 27be 7f9a 9ebe
00000200: bcb6 7ebe 0c65 ebbb 9d32 123e 72a5 87bd
00000210: f1e8 f3bd 4d21 dcbd de8e ab3d 6c1e 8cbe
00000220: 7987 e1bd f528 07bd 61b8 a8bd f569 1bbb
00000230: 50ea 973c 67fb 1abd e869 4c3d f797 71be
00000240: 12fc 21bd 7870 85bc 105f 2c3e a131 6abd
00000250: 97b5 413d 3e46 153d 9142 37bd 0771 a03d
00000260: 7fad 513d d27a 00be b27f 61be dc4d 43bc
00000270: b045 55bc ca24 e53c 9ca9 41bd ebb8 7e3d
00000280: 1483 f8bd 3bea e0bc 2dce 9fbd 9208 73bd
00000290: 0962 44bd 3326 bd3d 8ca3 923d afed 14be
000002a0: 90d3 91be 57b0 1cbd e7ce 463d ae63 e73c
000002b0: 733d 15be bc6a 4bbc 0e4a 72be 4ef5 04be
000002c0: 93d2 053d 71b0 7bbd 9069 f9bc 4ab7 3bbd
000002d0: 8e80 073e 16e4 35be 6afb eb3b 8408 283e
000002e0: 917c bdbc 5c13 1bbd 924a 71be 04b5 2cbe
000002f0: e2a0 0b3d 25a4 7dbd 4f54 133d ed6d 87bc
00000300: a500 873e 875e 14bd ccf9 073e e1e8 93bd
00000310: c102 1bbd d405 f93b cf7c 7b3e e30a a4bd
00000320: 54a1 b3bd 7597 a63d c22d 47bc baf7 27be
00000330: 1d93 40bd 15b2 afbd 261e a0bd 48f3 0a3d
00000340: e9e9 a6bd 50c6 cc3d 815a bf3c 2ee4 103d
00000350: 984d 4f3e 0c4e 193c 0185 833d 7a01 d0bd
00000360: 45d1 2fbd 3672 113e 3fce 3ebe 9346 e0bd
00000370: 1287 94bc dd05 d0bc 34ad 61bd 4292 203d
00000380: bd74 e93c 53b1 d3bc 9f52 1dbe 92ef 81be
00000390: 5186 28be f4d1 2c3d d4c3 d63d f1b8 06be
000003a0: e30c 3abd 1012 4a3d 2a91 65bd db20 02bd
000003b0: c263 51bd dff4 62bd b547 9a3c a9c2 223d
000003c0: 1a3a b2bd dc97 8b3c d275 a53d 573e 023d
000003d0: 69f1 6c3e 1a52 5a3d 20e7 3cbe 2f99 313e
000003e0: 4c00 483e 5d2d d7bd 009d 50bb 73ee 0cbe
000003f0: 5480 d0bd 828f 86bd 4daa cc3c d75e d53d

lstm.bias_ih_l0 f4 [200]
-0.0010394172 -0.4072147 -0.0881207 -0.0025169791 -0.39494854 -0.26535252 -0.15896477 -0.22664271
-0.16667253 -0.33669645 -0.2341109 -0.28506792 -0.20357747 -0.22701375 -0.0028154093 -0.16550878
-0.4952385 -0.29781505 -0.12170985 -0.2560368 -0.4202478 -0.16697593 -0.25377083 -0.43973148
0.09969203 -0.14116812 -0.2905306 -0.0097831795 -0.28168502 -0.29523578 -0.20974205 -0.24739762
-0.3337025 -0.37080792 -0.3620805 -0.010296793 0.076265246 0.038034037 -0.28620064 -0.3827445
-0.15671371 -0.1476862 0.089485295 -0.036241952 -0.2819708 -0.37264058 -0.03156303 -0.3499155
0.02944816 -0.38387042 -0.19594732 -0.40673888 -0.028729362 -0.081706114 -0.13977206 -0.2885811
-0.020984206 -0.25282308 -0.41290247 -0.060174666 -0.28865814 -0.33583698 -0.20856947 -0.23864938
-0.015045549 0.0064757955 -0.45641088 -0.30207396 -0.03702674 -0.26566547 -0.31419858 -0.27473807
-0.21888247 -0.24688062 -0.05719698 -0.19920662 -0.13312432 0.07633965 -0.020579863 -0.096017554
-0.22350253 -0.1935082 -0.3679971 -0.37486613 -0.1552322 -0.14082472 -0.18765688 -0.14634538
-0.30715525 -0.394342 -0.20158504 -0.14865361 -0.16131529 -0.14385006 -0.30577657 -0.33671397
0.07707994 -0.22011915 -0.013188505 -0.15196627 -0.37283328 0.047459442 -0.28026092 -0.12165754
-0.20787713 -0.2168294 -0.1186213 -0.06398205 -0.08667492 -0.21604171 -0.195782 0.0009054333
-0.03455901 -0.21049547 -0.31907892 0.22190686 0.041628093 -0.0919053 -0.19270146 -0.28050354
-0.06507661 -0.1702388 -0.1609245 -0.16242678 -0.3077208 -0.24412398 0.06687844 -0.23315836
-0.10617614 0.07742451 0.20589511 -0.12475465 -0.14059664 0.014065033 0.020588608 -0.285514
-0.33327702 -0.25080162 -0.01583149 0.0425453 0.34471035 0.11367892 0.30170703 -0.20883372
0.048949085 -0.036338907 0.3262838 -0.17133586 0.17560036 -0.1617761 -0.2435127 -0.43397552
-0.14360096 -0.004248263 -0.3889422 -0.26734638 0.06494704 -0.3733299 -0.1528712 -0.2398572
-0.22804244 -0.425668 -0.3619256 -0.038398422 -0.05161658 -0.2809119 -0.44084868 -0.15122862
-0.12410839 -0.06504484 -0.22597477 -0.084732145 -0.31934813 -0.470874 -0.10650261 -0.2741864
-0.3598454 0.07170458 -0.09141175 -0.07291966 -0.362097 -0.34034714 -0.41118953 -0.2587606
-0.2074067 0.06235904 0.07061494 -0.13775834 -0.2141949 -0.42158863 -0.19857742 -0.19911374
-0.11482212 -0.012042992 -0.30690005 -0.32800815 -0.010929155 -0.34949008 -0.029704647 -0.39484942
00000000: 0e3d 88ba 727e d0be a078 b4bd e7f3 24bb
00000010: b236 cabe 49dc 87be a9c7 22be 0715 68be
00000020: 34ac 2abe 7a63 acbe c5ba 6fbe 6cf4 91be
00000030: 9d76 50be 4b76 68be bb82 38bb 227b 29be
00000040: e78f fdbe 377b 98be 0443 f9bd 4117 83be
00000050: b82a d7be bdfb 2abe 40ee 81be 7c24 e1be
00000060: 562b cc3d 608e 10be 6dc0 94be a149 20bc
00000070: 0539 90be 2529 97be 9fc6 56be cd55 7dbe
00000080: 0edb aabe 89da bdbe 9e62 b9be e1b3 28bc
00000090: f430 9c3d 94c9 1b3d e488 92be 16f7 c3be
000000a0: 8f79 20be 0d3b 17be 1144 b73d 7172 14bd
000000b0: 7a5e 90be bfca bebe 3c48 01bd 2028 b3be
000000c0: 453d f13c aa8a c4be 6aa6 48be 1440 d0be
000000d0: d759 ebbc 8955 a7bd 6820 0fbe e7c0 93be
000000e0: 12e7 abbc 0772 81be f467 d3be b679 76bd
000000f0: 00cb 93be d3f2 abbe 3c93 55be 8160 74be
00000100: 9b81 76bc e932 d43b b0ae e9be 70a9 9abe
00000110: 5aa9 17bd 4e05 88be a3de a0be 78aa 8cbe
00000120: ba22 60be 46ce 7cbe 6147 6abd d2fc 4bbe
00000130: be51 08be f657 9c3d 1a97 a8bc daa4 c4bd
00000140: d9dd 64be 0327 46be 1e6a bcbe 74ee bfbe
00000150: 31f5 1ebe 5b34 10be 2029 40be 90db 15be
00000160: 7443 9dbe 32e7 c9be 4f6c 4ebe a738 18be
00000170: d62f 25be 6e4d 13be bf8e 9cbe c665 acbe
00000180: 16dc 9d3d ea66 61be 9914 58bc 0c9d 1bbe
00000190: 01e4 bebe d564 423d 5c7e 8fbe 9727 f9bd
000001a0: bedd 54be 8708 5ebe b9ef f2bd 0509 83bd
000001b0: 9f82 b1bd 0a3a 5dbe 147b 48be 9a5a 6d3a
000001c0: c08d 0dbd 208c 57be 505e a3be 8d3b 633e
000001d0: 3882 2a3d d938 bcbd 8853 45be 299e 8fbe
000001e0: e346 85bd 1453 2ebe 64c9 24be 3553 26be
000001f0: 958d 9dbe a3fb 79be 90f7 883d 11c1 6ebe
00000200: e072 d9bd be90 9e3d 2bd6 523e 5e7f ffbd
00000210: 91f8 0fbe 0671 663c 71a9 a83c e42e 92be
00000220: 49a3 aabe 1269 80be 0ab1 81bc fb43 2e3d
00000230: e07d b03e 7ed0 e83d 5879 9a3e 82d8 55be
00000240: d67e 483d 1bd8 14bd ac0e a73e ab72 2fbe
00000250: 95d0 333e a2a8 25be 655b 79be 0a32 debe
00000260: 210c 13be 0335 8bbb 6f23 c7be a0e1 88be
00000270: f402 853d 1925 bfbe 458a 1cbe 209d 75be
00000280: f583 69be 28f1 d9be 504e b9be aa47 1dbd
00000290: e86b 53bd afd3 8fbe ebb6 e1be addb 1abe
000002a0: 8a2c febd 3b36 85bd ee65 67be 0c88 adbd
000002b0: 9981 a3be 6616 f1be 0a1e dabd 2962 8cbe
000002c0: a83d b8be dad9 923d 1536 bbbd e756 95bd
000002d0: c764 b9be fb41 aebe 6f87 d2be 457c 84be
000002e0: 6c62 54be 316c 7f3d 919e 903d 8610 0dbe
000002f0: e855 5bbe 77da d7be e157 4bbe 79e4 4bbe
00000300: dc27 ebbd f84f 45bc 0122 9dbe aff0 a7be
00000310: 3310 33bc 5df0 b2be 2957 f3bc b429 cabe

lstm.bias_hh_l0 f4 [200]
-0.005155033 -0.40685964 -0.15446138 -0.13965884 -0.28214753 -0.36133084 0.017490279 -0.20252474
-0.38230428 -0.13592969 -0.15830648 -0.37645504 -0.38156533 -0.010949889 -0.06806989 -0.03777609
-0.39566106 -0.16963136 -0.15505446 -0.16780987 -0.3442759 -0.06770635 -0.3817968 -0.42232245
0.01757089 -0.34384626 -0.24425894 0.10809745 -0.05862783 -0.26477024 -0.14613302 -0.3233394
-0.28716567 -0.41604403 -0.46100038 0.017637378 -0.07590555 -0.038371563 -0.061583247 -0.23549306
-0.05381998 -0.27145302 0.008795651 0.036108565 -0.3895327 -0.1142767 0.11148018 -0.27654266
-0.05013305 -0.357041 -0.07167341 -0.2797944 -0.18530136 0.035417847 -0.29324102 -0.2031258
-0.03013102 -0.29145968 -0.4370981 -0.1021099 -0.28486997 -0.19920926 -0.32858205 -0.13051471
-0.018276608 -0.19814467 -0.44394684 -0.15596355 -0.1830475 -0.19834597 -0.20843843 -0.3405264
-0.31567135 -0.34533507 -0.0864251 -0.3598963 -0.14631371 -0.16470529 -0.15211728 -0.31069785
-0.14944 -0.19258718 -0.24834378 -0.1785019 -0.27478683 -0.048090536 0.026523488 -0.09005844
-0.14412084 -0.40104592 -0.2662156 -0.23446605 -0.11177108 -0.001220625 -0.28596494 -0.21559912
0.17493993 -0.26662067 -0.008091218 -0.27781454 -0.21784393 0.16233459 -0.33194566 -0.16833764
-0.26020935 -0.22874825 -0.21968472 -0.04005244 0.12819476 -0.24619387 -0.20257968 0.044278968
0.10277233 -0.2639276 -0.297543 0.30633792 0.15748696 -0.21437484 -0.22049849 -0.10401219
-0.24400507 -0.23106265 -0.0903623 -0.2439166 -0.23171577 -0.059246734 0.07526384 -0.24329357
-0.13019942 0.17626692 0.25057143 -0.1435818 -0.15882562 0.004616518 -0.036616694 -0.23925973
-0.18997027 -0.2237427 -0.24901986 0.068229675 0.17379351 0.19518927 0.102518834 -0.3834766
0.013214885 -0.10593506 0.2917459 -0.1974084 0.3467244 -0.23701507 -0.19499174 -0.38309288
-0.16560511 -0.08809861 -0.39407232 -0.3112639 0.00828893 -0.40630618 -0.14494036 -0.131837
-0.04738109 -0.17129731 -0.40431082 -0.21605222 0.12936653 -0.18696842 -0.5339331 -0.31922457
0.01352548 -0.28409952 -0.31245157 -0.33238536 -0.1450721 -0.33130693 0.12358524 -0.241862
-0.19595946 0.12171407 -0.12200525 -0.2919651 -0.33069137 -0.13859008 -0.47505477 -0.41982812
-0.44622082 0.011552778 -0.024005067 -0.22761689 -0.2597612 -0.23173852 -0.16252561 -0.19326262
0.074311234 -0.11105896 -0.36964193 -0.21622486 0.13867487 -0.3524771 0.12624156 -0.33477825
00000000: 8deb a8bb e84f d0be 202b 1ebe ba02 0fbe
00000010: a475 90be 5b00 b9be c647 8f3c a562 4fbe
00000020: 63bd c3be 2731 0bbe 181b 22be b7be c0be
00000030: 885c c3be 2a67 33bc 3a68 8bbd 1abb 1abd
00000040: 1694 cabe d8b3 2dbe 99c6 1ebe 5ad6 2bbe
00000050: ee44 b0be a0a9 8abd df7a c3be a63a d8be
00000060: d4f0 8f3c 9e0c b0be 041f 7abe 3262 dd3d
00000070: bc23 70bd f78f 87be e5a3 15be be8c a5be
00000080: 6107 93be b903 d5be 3e08 ecbe 437c 903c
00000090: 5e74 9bbd 802b 1dbd b73e 7cbd 1825 71be
000000a0: 5772 5cbd e4fb 8abe a21b 103c 93e6 133d
000000b0: d470 c7be e709 eabd b84f e43d 0097 8dbe
000000c0: 5058 4dbd 14ce b6be 82c9 92bd 3641 8fbe
000000d0: a4bf 3dbe 4e12 113d b023 96be 3600 50be
000000e0: 54d5 f6bc 343a 95be 52cb dfbe ff1e d1bd
000000f0: 7ada 91be 83fd 4bbe e83b a8be a6a5 05be
00000100: d3b8 95bc 70e6 4abe 004d e3be e9b4 1fbe
00000110: ce70 3bbe 351b 4bbe e270 55be 7a59 aebe
00000120: ad9f a1be c2cf b0be a5ff b0bd 5444 b8be
00000130: 43d3 15be 81a8 28be a2c4 1bbe ca13 9fbe
00000140: cd06 19be 9335 45be d54d 7ebe 34c9 36be
00000150: dcb0 8cbe 95fa 44bd c947 d93c 8f70 b8bd
00000160: 6a94 13be e455 cdbe 694d 88be de17 70be
00000170: 3ce8 e4bd 61fd 9fba ff69 92be 04c6 5cbe
00000180: 7423 333e 8182 88be 0791 04bc b53d 8ebe
00000190: 7b12 5fbe 0a3b 263e c8f4 a9be b460 2cbe
000001a0: 293a 85be fb3c 6abe 08f5 60be 070e 24bd
000001b0: 7d45 033e 3f1a 7cbe 0c71 4fbe dd5d 353d
000001c0: 4d7a d23d 8521 87be 8e57 98be 53d8 9c3e
000001d0: 4344 213e 1485 5bbe 5bca 61be 5804 d5bd
000001e0: 77dc 79be b09b 6cbe df0f b9bd 46c5 79be
000001f0: e646 6dbe b4ac 72bd ee23 9a3d f321 79be
00000200: ff52 05be 517f 343e e64a 803e 1b07 13be
00000210: 2fa3 22be 2946 973b 63fb 15bd 8100 75be
00000220: 9187 42be ce1c 65be 10ff 7ebe 00bc 8b3d
00000230: edf6 313e b2df 473e 65f5 d13d 0b57 c4be
00000240: 3f83 583c 7bf4 d8bd b85f 953e 6d25 4abe
00000250: dc85 b13e 14b4 72be eaab 47be c024 c4be
00000260: 6394 29be 0b6d b4bd d9c3 c9be fb5d 9fbe
00000270: 4bce 073c 5d07 d0be 3f6b 14be 4700 07be
00000280: ac12 42bd 9068 2fbe d401 cfbe cb3c 5dbe
00000290: a978 043e a674 3fbe d7af 08bf 6771 a3be
000002a0: fa99 5d3c 7e75 91be a7f9 9fbe 6a2e aabe
000002b0: c88d 14be 10a1 a9be 421a fd3d acaa 77be
000002c0: 99a9 48be 3a45 f93d e3dd f9bd 737c 95be
000002d0: 6150 a9be 8fea 0dbe 613a f3be b6f3 d6be
000002e0: 0e77 e4be dd47 3d3c 46a6 c4bc 6714 69be
000002f0: 6cff 84be dd4c 6dbe 1d6d 26be a3e6 45be
00000300: 7d30 983d e172 e3bd b541 bdbe 0d6a 5dbe
00000310: c900 0e3e e177 b4be 7845 013e 0e68 abbe

lstm.weight_ih_l1 f4 [200, 50]
-0.018428894 0.085903004 0.038669873 -0.14148957 -0.15967062 -0.08661477 0.2043934 0.104551405
0.08680344 0.115429975 -0.050110213 0.11155819 -0.068225525 -0.12753806 0.06523256 -0.036942095
-0.088213146 0.11045887 0.018615216 -0.16431566 0.108975835 0.112076715 0.026628623 -0.18473898
-0.07475309 0.014447463 -0.19376728 -0.15655635 -0.18825473 0.13723569 0.15835404 -0.17776217
-0.040332295 0.07635223 0.039348792 -0.13860355 0.04832138 0.06799346 0.01676768 -0.13364232
-0.10280017 -0.012213859 0.058523964 0.05700276 0.14560094 0.14870262 -0.02193324 0.028835835
-0.05594994 -0.074252434 -0.1237548 -0.024330674 -0.09342021 -0.20190686 0.024487171 0.20048375
0.13443248 0.17005439 -0.05362444 0.06342499 0.049043957 0.0011780533 -0.01028005 -0.07452252
-0.043387175 -0.027151572 0.010259496 0.24049585 -0.10521944 -0.096638486 0.12557533 0.093704574
0.18260704 -0.18143566 -0.14186479 0.02619724 -0.059400015 -0.22651719 -0.06610719 -0.10436599
0.0869802 -0.2724326 0.020802021 -0.20318367 0.026529191 0.020933133 0.057624713 -0.18998806
0.22183836 -0.02784504 -0.057981875 -0.092798896 0.17078716 -0.16368358 0.26509792 0.27248377
-0.29079157 0.02659595 0.044141825 -0.0049986728 0.05139051 0.051415727 0.11948564 -0.092499934
0.020564724 0.18860646 0.28037658 0.17754354 -0.0016919465 0.22131753 0.21010125 0.25511983
0.0058193486 -0.100864895 0.027616825 -0.1657636 0.022467876 0.14702791 -0.05282074 -0.05610017
-0.08700336 -0.07406102 -0.031995676 -0.0518123 -0.14296657 -0.04932716 -0.08010538 -0.07298824
-0.021637123 -0.07409495 0.06284926 -0.2550919 0.01661386 -0.1888841 0.16564779 -0.19680946
0.0661841 -0.084522545 0.08161696 0.021236576 -0.13205168 -0.20033206 0.15324277 -0.12164897
0.12014934 0.13609938 -0.25174716 0.0145903565 0.21727559 0.2055196 -0.095074385 0.0067624967
0.036188617 -0.091851436 -0.0310541 0.1263044 0.1772914 0.19102459 -0.2464713 0.002329828
0.14860515 0.046536934 0.010105076 -0.11445301 0.15306191 -0.012430992 -0.027383879 0.15848021
0.06406443 -0.010536024 0.057405896 -0.019384537 0.028268889 -0.15107256 0.00071434974 -0.11098004
-0.2982312 -0.038093004 -0.23677771 -0.026559776 0.13006525 -0.18003654 0.110393256 -0.09928693
0.012996445 -0.14738208 0.06583052 -0.25525093 0.2485601 0.17806327 -0.18114427 -0.17883812
0.14372723 -0.017211335 0.059106823 0.13443714 -0.10267964 0.19160439 0.24012776 0.074384995
-0.08777097 0.005992197 -0.040771384 -0.30670384 -0.06659849 0.25859323 0.21218127 0.22330011
-0.16278332 0.26495573 0.12212319 0.20293061 0.16179568 -0.070753604 0.008787423 -0.07937443
-0.12303188 0.11348071 -0.07982018 -0.061895896 -0.21777706 0.05598962 0.017022105 -0.0899799
-0.09271171 0.016071027 -0.3378668 -0.2805277 -0.20679913 -0.06276895 0.2182475 -0.23233701
-0.023250101 -0.1767103 0.23674329 -0.23121408 0.17190516 -0.020694988 0.025608119 -0.05265474
-0.22809982 -0.18432811 0.08645599 -0.10287487 0.26836514 0.31365195 -0.2890339 0.14880541
0.21342076 0.013602759 -0.09548778 -0.11501261 -0.067715816 -0.35462266 -0.04677713 0.10087431
00000000: 31f8 96bc eaed af3d 4d64 1e3d a4e2 10be
00000010: b280 23be 1663 b1bd 814c 513e 0c1f d63d
00000020: 00c6 b13d 8d66 ec3d 5e40 4dbd 9f78 e43d
00000030: d3b9 8bbd 5699 02be a698 853d 9850 17bd
00000040: 18a9 b4bd 4338 e23d f07e 983c 5d42 28be
00000050: b92e df3d 7a88 e53d 4524 da3c 372c 3dbe
00000060: 2618 99bd 0db5 6c3c ee6a 46be 4f50 20be
00000070: d9c5 40be 8387 0c3e 9027 223e 4907 36be
00000080: 7a33 25bd 8f5e 9c3d 332c 213d 17ee 0dbe
00000090: a4ec 453d 2840 8b3d 605c 893c 88d9 08be
000000a0: e588 d2bd a31c 48bc d3b6 6f3d ba7b 693d
000000b0: 6a18 153e 8045 183e 57ad b3bc 2139 ec3c
000000c0: c42b 65bd a911 98bd 2873 fdbd 1f51 c7bc
000000d0: 1853 bfbd acc0 4ebe 5299 c83c 9d4b 4d3e
000000e0: aba8 093e bd22 2e3e 4da5 5bbd f6e4 813d
000000f0: 51e2 483d e968 9a3a a86d 28bc 439f 98bd
00000100: c0b6 31bd f96c debc 7217 283c 8b44 763e
00000110: 4a7d d7bd 66ea c5bd d296 003e 2fe8 bf3d
00000120: 57fd 3a3e 45ca 39be 0145 11be 989b d63c
00000130: 6e4d 73bd 1ff4 67be 3563 87bd d6bd d5bd
00000140: ad22 b23d 497c 8bbe 0069 aa3c 610f 50be
00000150: bf53 d93c f67b ab3c e407 6c3d 3b8c 42be
00000160: 9829 633e 481b e4bc 677e 6dbd 590d bebd
00000170: d4e2 2e3e ab9c 27be eaba 873e fe82 8b3e
00000180: a2e2 94be c0df d93c 0fce 343d e8cb a3bb
00000190: db7e 523d 4c99 523d e3b4 f43d 9b70 bdbd
000001a0: 5a77 a83c 0d22 413e 858d 8f3e f9cd 353e
000001b0: 4ec4 ddba 10a1 623e c824 573e 119f 823e
000001c0: 3cb0 be3b 4192 cebd ae3c e23c efbd 29be
000001d0: 8d0e b83c 7c8e 163e 8f5a 58bd 4bc9 65bd
000001e0: d12e b2bd 4ead 97bd e60d 03bd 2239 54bd
000001f0: d465 12be 470b 4abd 4a0e a4bd dc7a 95bd
00000200: 5640 b1bc 18bf 97bd 1db7 803d 689b 82be
00000210: ca19 883c d56a 41be 939f 293e 6b88 49be
00000220: 888b 873d 281a adbd cb26 a73d 54f8 ad3c
00000230: 8e38 07be d923 4dbe aceb 1c3e 1823 f9bd
00000240: db10 f63d a35d 0b3e 01e5 80be 640c 6f3c
00000250: 7e7d 5e3e bb73 523e 5cb6 c2bd ef97 dd3b
00000260: 843a 143d 9b1c bcbd 2b65 febc f155 013e
00000270: e08b 353e f39b 433e f962 7cbe 07b0 183b
00000280: f32b 183e 839d 3e3d c38f 253c 5766 eabd
00000290: 43bc 1c3e 5cab 4bbc 2854 e0bc a348 223e
000002a0: 3634 833d 4a9f 2cbc 7222 6b3d 52cc 9ebc
000002b0: 2894 e73c c4b2 1abe 3343 3b3a 8149 e3bd
000002c0: c3b1 98be 6907 1cbd db75 72be e393 d9bc
000002d0: d32f 053e 805b 38be dc15 e23d f256 cbbd
000002e0: 0bef 543c 54eb 16be 27d2 863d 40b0 82be
000002f0: 8a86 7e3e 3856 363e e27d 39be 5721 37be
00000300: 3b2d 133e c9fe 8cbc ff19 723d e4a9 093e
00000310: b449 d2bd f133 443e 0de4 753e 2957 983d
00000320: 44c1 b3bd 315a c43b e5ff 26bd 4908 9dbe
00000330: ca64 88bd 5566 843e 0c46 593e c9a8 643e
00000340: acb0 26be 47a8 873e b91b fa3d 0bcd 4f3e
00000350: c4ad 253e 44e7 90bd 20f9 0f3c 108f a2bd
00000360: 23f8 fbbd 9368 e83d c378 a3bd 8d86 7dbd
00000370: f300 5fbe 5f55 653d f171 8b3c 6247 b8bd
00000380: a3df bdbd 63a7 833c e1fc acbe 54a1 8fbe
00000390: 27c3 53be 028d 80bd 467c 5f3e c1e9 6dbe
000003a0: ff76 bebc 8bf3 34be d56c 723e 62c3 6cbe
000003b0: e807 303e 8988 a9bc 1ec8 d13c 7fac 57bd
000003c0: 0093 69be 82c0 3cbe d70f b13d 0fb0 d2bd
000003d0: 2867 893e fd96 a03e 40fc 93be 7260 183e
000003e0: f98a 5a3e 1bde 5e3c 198f c3bd bb8b ebbd
000003f0: 97ae 8abd 1a91 b5be 6099 3fbd 3197 ce3d

lstm.weight_hh_l1 f4 [200, 50]
-0.037183028 -0.07981994 -0.133042 0.045210212 0.10206904 0.007868188 0.06683562 0.07323394
-0.09871462 -0.023367915 -0.11612651 0.1990129 -0.0057231286 0.08866376 -0.026659796 -0.06948007
-0.047714345 -0.07645612 -0.17426221 0.103825524 0.14118366 -0.16706246 -0.07595539 0.042257994
-0.19311886 -0.080759205 0.10552693 0.10297136 0.060816754 0.015128648 -0.12336306 -0.0029150406
-0.1138808 -0.20801882 -0.10472818 0.093297236 0.06825129 -0.12730664 0.14577477 -0.14914097
0.10311096 0.42639923 -0.06135118 0.20552588 -0.07600355 -0.06421991 -0.10413373 -0.082799666
-0.08100825 -0.04286891 -0.111411944 -0.05830345 -0.2158775 0.21362653 0.087707356 0.30487373
0.19817607 0.07484776 -0.070524506 -0.16581544 -0.17658189 -0.012944621 -0.01392569 -0.051218648
0.11199082 0.07249853 -0.03535512 0.14481135 -0.13589978 0.025638908 -0.036849167 -0.05274361
-0.043293454 0.023889948 -0.033669267 0.053145505 0.14390814 0.07029998 0.20700757 -0.19937664
-0.13594529 -0.024833152 -0.035437923 0.027874952 -0.031933103 0.10867101 0.051960822 -0.15781635
0.098569416 -0.09092109 0.08731085 0.41095194 -0.10733787 -0.016003668 -0.18746127 -0.06673623
-0.16010846 0.064610206 0.13916059 -0.12208398 -0.056704085 0.049072813 -0.106919065 0.18213002
-0.014263571 0.24823727 0.04422637 -0.08782649 0.005612088 -0.1839631 -0.14297536 0.028282179
-0.07003579 -0.12687197 -0.03809741 0.19919977 -0.02260642 -0.057659104 -0.2325887 0.06744683
-0.020238139 -0.14598182 0.029285755 0.11894726 -0.21450724 -0.15533318 -0.057600237 -0.01486345
0.10418454 -0.0694768 -0.103658035 0.09531575 -0.06729436 -0.055354144 0.06508515 0.11458829
0.23226969 -0.012508835 -0.02181558 -0.007842702 0.1368514 0.35456038 -0.2479889 0.0009967949
-0.06005845 0.14470014 0.02436694 -0.020711662 -0.050335772 0.031375423 0.014377966 -0.124067396
-0.03005644 0.14953914 -0.0073738615 0.14842851 0.10894808 -0.022385206 0.06423711 -0.06150351
-0.07213929 0.19988051 -0.0464772 -0.061897326 -0.05568501 0.031851877 -0.018982874 0.11223251
-0.17718926 0.065945625 0.11191261 -0.2161933 0.09283299 0.0818174 -0.07551677 -0.1194098
-0.01906342 0.18090257 0.1989717 0.13143748 -0.016499927 -0.018770564 -0.09731071 -0.17911723
0.0023673493 0.09906535 0.14617248 -0.040550433 -0.012676904 -0.0064819916 0.31518605 0.41377786
-0.33211115 0.14488038 -0.1426407 0.06074676 -0.10060922 -0.1381959 0.15732886 -0.0012705264
0.22362785 -0.114849195 -0.14734943 0.20131758 0.1333482 0.14680962 0.08504989 -0.22682348
-0.27767298 -0.24915391 -0.26274082 0.066208325 0.121401414 -0.18695174 -0.029019305 0.20972414
-0.21982163 0.041788112 -0.2268393 -0.063987084 0.012034372 -0.28591812 0.01996928 -0.024411064
-0.0990299 -0.009525406 0.17286777 0.19803283 0.039545048 -0.055433944 -0.20041114 0.15492035
-0.14745133 -0.01888252 -0.09838498 0.08642284 0.028490966 -0.18442863 0.04019841 -0.2595652
0.34535897 0.36339992 -0.17456491 0.25808132 -0.14009026 0.2418488 -0.11124345 -0.12887928
0.19705352 0.18852785 -0.060240958 -0.04005057 0.039053995 -0.050466705 0.09819734 0.13741076
00000000: 3b4d 18bd a378 a3bd 293c 08be 582e 393d
00000010: 9309 d13d 93e9 003c 1de1 883d adfb 953d
00000020: e42a cabd 126e bfbc bcd3 edbd 0aca 4b3e
00000030: 1589 bbbb 5895 b53d a565 dabc 914b 8ebd
00000040: 1e70 43bd 0795 9cbd cb71 32be 7aa2 d43d
00000050: 7392 103e 6c12 2bbe 808e 9bbd b816 2d3d
00000060: f3c0 45be 1565 a5bd 811e d83d a6e2 d23d
00000070: fd1a 793d 26de 773c c6a5 fcbd 440a 3fbb
00000080: 563a e9bd e302 55be ba7b d6bd 9f12 bf3d
00000090: 55c7 8b3d ac5c 02be fb45 153e 69b8 18be
000000a0: d72b d33d 0051 da3e 604b 7bbd 6075 523e
000000b0: c0a7 9bbd ba85 83bd 1144 d5bd df92 a9bd
000000c0: a7e7 a5bd 4f97 2fbd f22b e4bd 99cf 6ebd
000000d0: fe0e 5dbe eac0 5a3e ea9f b33d 6918 9c3e
000000e0: abee 4a3e c849 993d 276f 90bd 86cb 29be
000000f0: e2d1 34be ad15 54bc 9428 64bc a5ca 51bd
00000100: 715b e53d 1c7a 943d 88d0 10bd 6d49 143e
00000110: 5029 0bbe b008 d23c 27ef 16bd af09 58bd
00000120: 7a54 31bd dab4 c33c c9e8 09bd 1aaf 593d
00000130: a85c 133e 70f9 8f3d cbf9 533e 6429 4cbe
00000140: 3e35 0bbe e56e cbbc 5b27 11bd 035a e43c
00000150: 49cc 02bd e88e de3d dfd4 543d 9c9a 21be
00000160: c3de c93d d634 babd 08d0 b23d 4b68 d23e
00000170: f5d3 dbbd 201a 83bc d9f5 3fbe 01ad 88bd
00000180: 79f3 23be 5b52 843d 1d80 0e3e 2a07 fabd
00000190: 8b42 68bd 9300 493d 62f8 dabd 4b80 3a3e
000001a0: c1b1 69bc e931 7e3e b626 353d 60de b3bd
000001b0: 9be5 b73b d360 3cbe 2268 12be 07b0 e73c
000001c0: ed6e 8fbd baea 01be 080c 1cbd 06fb 4b3e
000001d0: 1931 b9bc f42b 6cbd bb2b 6ebe 9021 8a3d
000001e0: 74ca a5bc 427c 15be aee8 ef3c 9f9a f33d
000001f0: c9a7 5bbe a90f 1fbe 3aee 6bbd d485 73bc
00000200: b45e d53d da49 8ebd aa4a d4bd e734 c33d
00000210: a0d1 89bd 07bb 62bd 5d4b 853d 44ad ea3d
00000220: 1bd8 6d3e dbf1 4cbc 96b6 b2bc ad7e 00bc
00000230: c622 0c3e f088 b53e cdf0 7dbe e3a6 823a
00000240: d9ff 75bd 462c 143e 2d9d c73c 81ab a9bc
00000250: e22c 4ebd 8483 003d 8f91 6b3c 0c17 febd
00000260: ec38 f6bc ca20 193e 6fa0 f1bb a5fd 173e
00000270: 2c20 df3d 2e61 b7bc bf8e 833d 1beb 7bbd
00000280: c4bd 93bd 7aad 4c3e e05e 3ebd 0d88 7dbd
00000290: f715 64bd 1d77 023d f981 9bbc 28da e53d
000002a0: 1a71 35be 800e 873d 7032 e53d c761 5dbe
000002b0: 391f be3d e28f a73d 89a8 9abd 208d f4bd
000002c0: e42a 9cbc 863e 393e 3dbf 4b3e 8c97 063e
000002d0: db2a 87bc bac4 99bc d64a c7bd 826a 37be
000002e0: 8825 1b3b c6e2 ca3d 3dae 153e 3618 26bd
000002f0: cab2 4fbc e366 d4bb 1160 a13e b1da d33e
00000300: 790a aabe 865b 143e 6710 12be 98d1 783d
00000310: 350c cebd 3a83 0dbe d11a 213e cb87 a6ba
00000320: b3fe 643e 0e36 ebbd c5e2 16be 3226 4e3e
00000330: 6e8c 083e 4355 163e a32e ae3d 6a44 68be
00000340: 272b 8ebe 3422 7fbe f785 86be 3b98 873d
00000350: 4ea1 f83d 4770 3fbe e5b9 edbc edc1 563e
00000360: ec18 61be 032a 2b3d 9048 68be a90b 83bd
00000370: d12b 453c dc63 92be 9e96 a33c b6f9 c7bc
00000380: 30d0 cabd 7310 1cbc 4004 313e 1ec9 4a3e
00000390: fdf9 213d b40e 63bd 9438 4dbe 71a3 1e3e
000003a0: 7bfd 16be 84af 9abc 107e c9bd 75fe b03d
000003b0: e365 e93c dcda 3cbe 17a7 243d bbe5 84be
000003c0: e4d2 b03e 8e0f ba3e 25c1 32be 3c23 843e
000003d0: d273 0fbe 36a7 773e 9bd3 e3bd eef8 03be
000003e0: 66c8 493e 720d 413e 39bf 76bd 110c 24bd
000003f0: 15f7 1f3d 2db6 4ebd b01b c93d 68b5 0c3e

lstm.bias_ih_l1 f4 [200]
-0.6643396 -0.7234758 -0.65924305 -0.67233276 -0.80160946 -0.07729517 -0.3725451 -0.59672195
-0.7125502 -0.7738103 -0.4115221 -0.48944235 -0.7694684 -0.7395988 -0.66897035 -0.72457
-0.60242426 -0.6196925 -0.24755985 -0.80407554 -0.7163658 -0.2373311 -0.45780095 -0.81857586
-0.5628343 -0.54367787 -0.82467383 -0.5587157 -0.4184964 -0.5460349 -0.53836334 -0.85248876
-0.58308244 -0.56286764 -0.6433617 -0.6738807 -0.51477164 -0.4501023 -0.8274458 -0.6692858
-0.082958296 0.09754172 -0.17971309 -0.39764816 -0.08545558 -0.6414456 -0.24845402 -0.6276762
-0.77127975 -0.83482575 -0.45622957 -0.6924403 -0.4215824 -0.523479 -0.6800088 -0.13565263
-0.29976565 -0.35746428 -0.40555483 -0.39872324 -0.33429688 -0.40121007 -0.4416104 -0.4213419
-0.64359146 -0.43941745 -0.36788467 -0.57547754 -0.28213534 -0.5288358 -0.44292507 -0.2628416
-0.46529356 -0.61208624 -0.43547827 -0.48420605 -0.5919865 -0.33125314 -0.41732097 -0.4940108
-0.44179866 -0.6005541 -0.380768 -0.6411849 -0.50088894 -0.4511797 -0.3906633 -0.45991778
-0.5474927 -0.5962463 -0.075872645 0.20278373 -0.12860198 -0.35898155 -0.29224512 -0.50583464
-0.30092412 -0.42061588 -0.56971717 -0.61235726 -0.18624288 -0.12728243 -0.058387894 0.027176198
0.04871455 -0.25417912 -0.17739539 0.18492953 0.015761094 0.044748224 0.20527598 -0.13615803
-0.11745001 0.117866375 -0.050010324 -0.09783544 0.12504563 -0.0147705665 0.24114941 0.040198233
-0.12585226 0.093249395 -0.058726232 -0.09856516 0.17190062 0.040875014 -0.08934892 -0.052503515
-0.008082658 0.03628464 0.16935152 0.07461427 0.07913238 0.088296205 -0.006250838 0.013123705
-0.1431043 0.031258237 0.103108525 0.15331295 -0.12611246 -0.3695009 0.29678625 -0.09141091
0.29235703 0.052989542 0.22073881 -0.0532994 -0.049131334 0.07633282 -0.4783216 -0.6504011
-0.66396165 -0.840952 -0.81223184 -0.21411946 -0.45551813 -0.50520915 -0.7253949 -0.6441287
-0.3942194 -0.5338138 -0.7893865 -0.7638477 -0.65752465 -0.61531484 -0.53158784 -0.6680831
-0.34416157 -0.7862469 -0.5624535 -0.432521 -0.641238 -0.71773463 -0.58740944 -0.6151547
-0.7440466 -0.50012445 -0.42289332 -0.6101603 -0.61500907 -0.689669 -0.6077642 -0.5133779
-0.6772393 -0.54418415 -0.4784484 -0.40020263 -0.66416943 -0.6706681 -0.059226435 0.25190154
0.016384255 -0.54011244 -0.26551858 -0.77508456 -0.20122296 -0.5207916 -0.74249107 -0.7528321
00000000: 2912 2abf b635 39bf 27c4 28bf 001e 2cbf
00000010: 4736 4dbf ee4c 9ebd 3bbe bebe c5c2 18bf
00000020: b169 36bf 6f18 46bf 06b3 d2be 3098 fabe
00000030: e2fb 44bf 5956 3dbf a441 2bbf 6b7d 39bf
00000040: 7a38 1abf 2ba4 1ebf 5480 7dbe e5d7 4dbf
00000050: c063 37bf ed06 73be e364 eabe 308e 51bf
00000060: e915 10bf 792e 0bbf d31d 53bf fe07 0fbf
00000070: 2945 d6be f1c8 0bbf 2ed2 09bf b43c 5abf
00000080: e444 15bf 1818 10bf 5ab3 24bf 7283 2cbf
00000090: 13c8 03bf cf73 e6be 7dd3 53bf 5056 2bbf
000000a0: 0ae6 a9bd f4c3 c73d b506 38be 8a98 cbbe
000000b0: 5603 afbd c735 24bf bb6a 7ebe 63af 20bf
000000c0: 9772 45bf 24b7 55bf ec96 e9be c443 31bf
000000d0: a6d9 d7be b802 06bf 0f15 2ebf 86e8 0abe
000000e0: e27a 99be 8f05 b7be e2a4 cfbe 7425 ccbe
000000f0: f628 abbe 686b cdbe c21a e2be 20ba d7be
00000100: 69c2 24bf 53fb e0be 615b bcbe 7f52 13bf
00000110: 0b74 90be c861 07bf 13c7 e2be 2d93 86be
00000120: f53a eebe afb1 1cbf 02f7 debe dbe9 f7be
00000130: 6d8c 17bf 039a a9be 18ab d5be fcee fcbe
00000140: 6f33 e2be eabd 19bf 06f4 c2be b224 24bf
00000150: 423a 00bf 0701 e7be 0505 c8be 587a ebbe
00000160: 7b28 0cbf 99a3 18bf 1e63 9bbd 8aa6 4f3e
00000170: 3db0 03be 6ecc b7be 27a1 95be 617e 01bf
00000180: ba12 9abe f75a d7be fcd8 11bf 72c3 1cbf
00000190: 74b6 3ebe 5356 02be 2528 6fbd 9ea0 de3c
000001a0: e888 473d c423 82be 23a7 35be 2b5e 3d3e
000001b0: 691d 813c ea49 373d de33 523e 036d 0bbe
000001c0: a189 f0bd ed63 f13d a0d7 4cbd f25d c8bd
000001d0: f60b 003e 3f00 72bc dfef 763e e7a6 243d
000001e0: 6adf 00be 8af9 be3d eb8a 70bd 88dc c9bd
000001f0: b706 303e 8f6c 273d 91fc b6bd ed0d 57bd
00000200: 206d 04bc 349f 143d 7c6a 2d3e 5ecf 983d
00000210: 2810 a23d a4d4 b43d d4d3 ccbb cf04 573c
00000220: ef89 12be a308 003d 902a d33d 12fe 1c3e
00000230: a023 01be 392f bdbe 5ef4 973e a535 bbbd
00000240: d2af 953e 900b 593d 5b09 623e 7950 5abd
00000250: f03d 49bd 6254 9c3d 92e6 f4be b080 26bf
00000260: 64f9 29bf a148 57bf 6dee 4fbf 2242 5bbe
00000270: ac39 e9be 6355 01bf 7bb3 39bf 9ee5 24bf
00000280: 20d7 c9be 05a8 08bf 3c15 4abf 868b 43bf
00000290: 8953 28bf 4685 1dbf 2416 08bf 7e07 2bbf
000002a0: f235 b0be 7a47 49bf f4fc 0fbf 6473 ddbe
000002b0: 2c28 24bf 75bd 37bf 7760 16bf c77a 1dbf
000002c0: d779 3ebf 2808 00bf 7985 d8be 7733 1cbf
000002d0: 3c71 1dbf 268e 30bf 6f96 1bbf bc6c 03bf
000002e0: 8e5f 2dbf a74f 0bbf 30f7 f4be 5ce7 ccbe
000002f0: 0207 2abf e8b0 2bbf 6b97 72bd 3df9 803e
00000300: 4638 863c cf44 0abf 0df2 87be f16b 46bf
00000310: 640d 4ebe 9952 05bf e513 3ebf 9bb9 40bf

lstm.bias_hh_l1 f4 [200]
-0.6304086 -0.6078599 -0.78416 -0.74263906 -0.8535486 -0.20215316 -0.55274856 -0.68908423
-0.63290083 -0.6673383 -0.5056037 -0.30846396 -0.6700673 -0.5374101 -0.53370076 -0.6427826
-0.6985357 -0.7877733 -0.23736274 -0.75041825 -0.6732024 -0.26663825 -0.55097693 -0.63964516
-0.7065368 -0.62008893 -0.680736 -0.5879724 -0.61599934 -0.6867221 -0.4869407 -0.6101051
-0.515272 -0.6858475 -0.681498 -0.6761824 -0.5908408 -0.43747547 -0.8241431 -0.561998
-0.060193837 0.17392476 0.020809866 -0.47982457 -0.28122684 -0.7942987 -0.21419859 -0.6328022
-0.7002402 -0.73401463 -0.44997865 -0.47015136 -0.5377258 -0.6053339 -0.5448222 0.007799416
-0.47204995 -0.47682282 -0.6582218 -0.40690258 -0.42012018 -0.41754556 -0.5226062 -0.5534516
-0.5406071 -0.5941499 -0.50020844 -0.64390326 -0.4074878 -0.54068744 -0.5105988 -0.38588452
-0.54922557 -0.3939032 -0.36339802 -0.63712186 -0.55283195 -0.58019245 -0.3445186 -0.54414463
-0.43104127 -0.64567447 -0.5004154 -0.47589025 -0.54317683 -0.5687427 -0.38908127 -0.4640953
-0.5884851 -0.38520375 -0.13802207 0.12361231 0.049612127 -0.41062832 -0.21230546 -0.60725147
-0.3372568 -0.40962443 -0.4002585 -0.55638343 0.05169711 -0.058740567 0.17234102 -0.049202215
-0.1833649 -0.14779055 -0.13055204 0.1226811 0.039384373 0.12415119 -0.009571568 -0.13088036
0.10723872 0.045493614 0.025632828 -0.00543176 0.119719274 0.017234629 0.12556534 0.16601959
-0.041425407 0.1965728 -0.15279989 -0.086198926 0.03608036 0.13458191 -0.05603379 -0.21720329
-0.24456818 -0.039548352 0.0977661 0.017460212 0.18381095 0.07492366 -0.083842374 -0.114619024
0.03193262 0.21830791 -0.092340365 0.066426255 -0.35455564 -0.37084928 0.24644315 -0.058737993
0.064103834 -0.120011605 0.217045 0.08691315 -0.09920829 -0.1364725 -0.72148836 -0.6246381
-0.70905817 -0.70604825 -0.670405 -0.17423251 -0.55575544 -0.680482 -0.5692035 -0.74831164
-0.5103979 -0.31074685 -0.87890315 -0.7531197 -0.7228609 -0.72469556 -0.5061133 -0.60912555
-0.11684873 -0.56255484 -0.6088283 -0.38773263 -0.56739545 -0.68952096 -0.4926629 -0.4896134
-0.6228132 -0.5810942 -0.40631333 -0.73463255 -0.51853395 -0.7070993 -0.5048678 -0.5643345
-0.6998309 -0.7011749 -0.67489636 -0.3230216 -0.59052604 -0.525748 -0.09924281 0.23964994
-0.014105442 -0.3780009 -0.15133563 -0.5272065 -0.11167567 -0.7527421 -0.74828416 -0.67902416
00000000: 7562 21bf b59c 1bbf b6be 48bf 981d 3ebf
00000010: 2982 5abf 3d01 4fbe ee80 0dbf d367 30bf
00000020: ca05 22bf afd6 2abf 3e6f 01bf fdee 9dbe
00000030: 8889 2bbf b593 09bf 9da0 08bf 678d 24bf
00000040: 3cd3 32bf 83ab 49bf 380f 73be 691b 40bf
00000050: fe56 2cbf cf84 88be d30c 0dbf c9bf 23bf
00000060: 99df 34bf 26be 1ebf b744 2ebf 5c85 16bf
00000070: 22b2 1dbf 05cd 2fbf 4b50 f9be d92f 1cbf
00000080: dee8 03bf b493 2fbf a776 2ebf 4a1a 2dbf
00000090: 5841 17bf c9fc dfbe 0bfb 52bf 1adf 0fbf
000000a0: d08d 76bd 5519 323e 7479 aa3c 91ab f5be
000000b0: f7fc 8fbe 2957 4bbf e056 5bbe 53ff 21bf
000000c0: f142 33bf 62e8 3bbf 9a63 e6be aeb7 f0be
000000d0: 66a8 09bf 2af7 1abf 7879 0bbf 3e92 ff3b
000000e0: 88b0 f1be 1f22 f4be 3981 28bf 8955 d0be
000000f0: fe19 d7be 88c8 d5be 85c9 05bf 01af 0dbf
00000100: 3a65 0abf 351a 18bf a90d 00bf d8d6 24bf
00000110: 3ea2 d0be 7e6a 0abf 9ab6 02bf a892 c5be
00000120: 0c9a 0cbf aead c9be 4e0f babe 6b1a 23bf
00000130: 6586 0dbf 7e87 14bf be64 b0be 104d 0bbf
00000140: 71b1 dcbe ec4a 25bf 391b 00bf e3a7 f3be
00000150: a30d 0bbf 1f99 11bf a935 c7be e69d edbe
00000160: f6a6 16bf 6d39 c5be a855 0dbe 7328 fd3d
00000170: 1636 4b3d e03d d2be 9a66 59be d574 1bbf
00000180: ecac acbe 4bba d1be afee ccbe 256f 0ebf
00000190: 59c0 533d f399 70bd 2a7a 303e 4388 49bd
000001a0: 02c4 3bbe 6856 17be 6faf 05be 3b40 fb3d
000001b0: 8251 213d fb42 fe3d 11d2 1cbc 8005 06be
000001c0: f99f db3d 8357 3a3d f0fb d13c e8fc b1bb
000001d0: 612f f53d a32f 8d3c 3394 003e 0a01 2a3e
000001e0: b0ad 29bd 614a 493e 9377 1cbe 1089 b0bd
000001f0: 00c9 133d d7cf 093e b083 65bd 8a6a 5ebe
00000200: 1570 7abe 74fd 21bd 9839 c83d b808 8f3c
00000210: f038 3c3e 9371 993d 8db5 abbd 61bd eabd
00000220: c7cb 023d 1c8c 5f3e f21c bdbd 7d0a 883d
00000230: 5188 b5be f5df bdbe 985b 7c3e 4097 70bd
00000240: df48 833d a5c8 f5bd 0b41 5e3e 86ff b13d
00000250: b72d cbbd 72bf 0bbe 76b3 38bf 48e8 1fbf
00000260: d684 35bf 94bf 34bf a99f 2bbf 026a 32be
00000270: fd45 0ebf 1134 2ebf 52b7 11bf 5a91 3fbf
00000280: 70a9 02bf 361a 9fbe ccff 60bf 74cc 40bf
00000290: 690d 39bf a685 39bf a490 01bf a7ef 1bbf
000002a0: 634e efbd 9803 10bf 2cdc 1bbf e484 c6be
000002b0: d440 11bf 7284 30bf 503e fcbe 9cae fabe
000002c0: b070 1fbf 97c2 14bf 4d08 d0be e110 3cbf
000002d0: a4be 04bf 7604 35bf 043f 01bf 3a78 10bf
000002e0: 1e28 33bf 3380 33bf 02c6 2cbf 1663 a5be
000002f0: b72c 17bf 6c97 06bf d03f cbbd cb66 753e
00000300: 831a 67bc 5589 c1be baf7 1abe 01f7 06bf
00000310: 37b6 e4bd b5b3 40bf 8d8f 3fbf 87d4 2dbf

lstm.weight_ih_l2 f4 [200, 50]
0.20921095 -0.090727545 -0.049624793 0.08156361 0.004185791 0.55588573 0.14967702 -0.08709378
0.023677478 -0.17545663 -0.4175501 0.31923214 -0.119256444 -0.16091663 -0.07478197 0.28349432
0.0040504583 0.025862675 -0.43248117 0.0553284 0.1461682 -0.2052753 0.15326935 0.0048605823
-0.084962055 -0.19518448 0.039633125 0.23153642 0.10910197 0.043933913 -0.3318645 -0.04810739
-0.10316646 -0.11219873 0.06770691 0.25736 0.15017836 -0.40278885 0.24659795 -0.065074265
0.5698544 1.0273007 -0.6880937 0.08736573 -0.4788325 0.111338116 -0.56031215 -0.17454673
0.20171174 -0.016080264 0.025798572 0.06218046 -0.13227214 0.08598538 0.0741263 0.6019288
0.09293882 -0.24146338 0.07610904 -0.018424487 -0.28944987 0.21020864 0.13293603 0.041324962
-0.05450604 0.19786981 -0.03861883 0.05038193 -0.46918517 -0.06445992 0.22639972 -0.20851143
0.18366982 0.16610292 -0.14802484 -0.19871281 0.095188506 0.19389062 0.14707904 0.007119427
-0.13992693 0.081480674 -0.08326231 -0.0070606647 -0.005282414 0.04738585 0.05535424 -0.23552531
0.23389196 -0.22527374 0.74572146 1.0280186 -0.62861884 0.18827832 -0.36203283 -0.0067163617
-0.24889162 -0.17310183 -0.04572013 -0.104213424 0.17868894 0.10718529 0.05534775 0.03872115
-0.07822547 0.40583512 0.1058215 -0.14387569 -0.113693625 -0.22224414 -0.51415855 0.2724207
-0.04425777 -0.04750737 0.12901472 0.07443958 -0.15686783 -0.002485085 -0.45677778 0.01669399
0.20721719 -0.4801527 0.10118014 0.081703335 -0.24923255 -0.13061276 0.0777101 0.2429348
0.2135585 -0.07363052 -0.1698861 -0.084755845 -0.07628945 -0.32730398 -0.024973553 0.054166175
0.081897005 -0.118475124 -0.034580406 -0.3151017 0.5882528 0.9012833 -0.88486725 0.19199951
-0.32645407 0.13363601 -0.42630753 0.009147824 0.16632383 0.07262738 -0.008096412 0.08889578
-0.023162615 0.067723036 -0.0884673 0.4663607 0.21873264 -0.024166191 -0.030986551 -0.03776728
-0.34823355 0.2337538 0.108567744 -0.18852799 0.079251684 0.050233744 -0.24160025 -0.005209344
-0.48805317 0.020609207 0.20997992 -0.1958676 0.14439127 0.047708984 -0.13820891 -0.12214847
-0.015756667 0.09503413 0.197016 0.06780211 -0.22024755 0.15063184 -0.24656008 -0.15173416
0.01721035 0.26308635 -0.049351122 -0.15473406 -0.009007876 -0.060210224 0.5439825 0.67085975
-0.8595787 0.31822336 -0.23380423 0.15024494 -0.27384636 -0.19627981 0.105898134 0.019896071
0.07989896 0.06813482 -0.048858162 0.14250115 -0.08557111 0.36459395 0.08939654 -0.16632031
0.1269475 -0.22296952 -0.18367063 0.38979396 0.04079324 -0.054608393 0.019023765 0.09296378
-0.19363584 -0.042903326 -0.37369278 0.07846451 -0.07239272 -0.23358494 0.13831384 -0.10309398
-0.26615888 -0.31423604 0.05755652 0.027943835 -0.00044711918 0.08471575 -0.25706893 0.15045717
-0.010713938 -0.090020336 0.1716439 0.06387969 0.15178408 -0.13380904 0.076267935 -0.17948477
0.517664 0.8147921 -0.6102508 0.081664 -0.36154696 0.042932965 -0.52111536 -0.046821035
0.1318665 0.07971344 0.14633235 0.13738368 0.041361947 0.0021872427 -0.021749906 0.6584322
00000000: 653b 563e 5dcf b9bd 5e43 4bbd d20a a73d
00000010: f628 893b 874e 0e3f ef44 193e 395e b2bd
00000020: 45f7 c13c e7aa 33be 20c9 d5be 6572 a33e
00000030: b93c f4bd 54c7 24be 4a27 99bd 2b26 913e
00000040: b5b9 843b f6dd d33c 2c6e ddbe 08a0 623d
00000050: 1ead 153e b033 52be a4f2 1c3e 8545 9f3b
00000060: 9600 aebd 71de 47be 5856 223d e217 6d3e
00000070: db70 df3d 0cf4 333d 25ea a9be 410c 45bd
00000080: f048 d3bd 73c8 e5bd eca9 8a3d b1c4 833e
00000090: 5bc8 193e 573a cebe 2c84 7c3e a845 85bd
000000a0: fae1 113f 977e 833f e926 30bf ceec b23d
000000b0: 8929 f5be 3d05 e43d 9e70 0fbf 61bc 32be
000000c0: 868d 4e3e c2ba 83bc 8757 d33c f0b0 7e3d
000000d0: 5972 07be 1a19 b03d 88cf 973d 0118 1a3f
000000e0: b556 be3d 2d42 77be 0edf 9b3d f3ee 96bc
000000f0: c632 94be ef40 573e 6220 083e 5d44 293d
00000100: ba41 5fbd 629e 4a3e c72e 1ebd 485d 4e3d
00000110: 0a39 f0be 9003 84bd 54d5 673e 0584 55be
00000120: f113 3c3e e216 2a3e d393 17be 5f7b 4bbe
00000130: 31f2 c23d 438b 463e e39b 163e 154a e93b
00000140: 0149 0fbe 57df a63d 6e85 aabd 265d e7bb
00000150: 1a18 adbb aa17 423d 21bb 623d 8c2d 71be
00000160: 6081 6f3e 29ae 66be 9ae7 3e3f 1d96 833f
00000170: 2aed 20bf 08cc 403e 5e5c b9be ed14 dcbb
00000180: 72dd 7ebe 9b41 31be 0845 3bbd d96d d5bd
00000190: 3cfa 363e f683 db3d 53b4 623d 129a 1e3d
000001a0: ad34 a0bd 9fc9 cf3e f1b8 d83d 2654 13be
000001b0: 34d8 e8bd f893 63be e59f 03bf ba7a 8b3e
000001c0: a347 35bd 1797 42bd 6f1c 043e c773 983d
000001d0: f6a1 20be cfdc 22bb c7de e9be d6c1 883c
000001e0: be30 543e 93d6 f5be 8937 cf3d 1454 a73d
000001f0: d136 7fbe 5abf 05be 7926 9f3d e6c3 783e
00000200: 14af 5a3e 99cb 96bd 9ff6 2dbe 7994 adbd
00000210: a53d 9cbd 6394 a7be 5695 ccbc 5add 5d3d
00000220: 9eb9 a73d 16a3 f2bd 2fa4 0dbd 0355 a1be
00000230: bc97 163f 81ba 663f a986 62bf 859b 443e
00000240: fd24 a7be e1d7 083e fb44 dabe c1e0 153c
00000250: cb50 2a3e aabd 943d d0a6 04bc fe0e b63d
00000260: 86bf bdbc 60b2 8a3d 582e b5bd d4c6 ee3e
00000270: 73fb 5f3e 2df8 c5bc 82d7 fdbc ddb1 1abd
00000280: ab4b b2be 285d 6f3e c458 de3d 7b0d 41be
00000290: b54e a23d e6c1 4d3d 0e66 77be 25b3 aabb
000002a0: 1be2 f9be a4d4 a83c fa04 573e 8491 48be
000002b0: 4edb 133e 7f6a 433d a386 0dbe fa28 fabd
000002c0: 2014 81bc 41a1 c23d 90be 493e d5db 8a3d
000002d0: 9388 61be 3c3f 1a3e 3f7a 7cbe 3360 1bbe
000002e0: b8fc 8c3c 41b3 863e 6724 4abd 9b72 1ebe
000002f0: c595 13bc ff9e 76bd 7042 0b3f 77bd 2b3f
00000300: 5a0d 5cbf 2cee a23e 606a 6fbe cfd9 193e
00000310: 9735 8cbe 93fd 48be 1fe1 d83d 16fd a23c
00000320: 11a2 a33d 458a 8b3d 7f1f 48bd d2eb 113e
00000330: e83f afbd 0fac ba3e 8815 b73d df4f 2abe
00000340: 87fe 013e 1f52 64be 2714 3cbe 1393 c73e
00000350: d016 273d 0dad 5fbd bad7 9b3c cb63 be3d
00000360: 7948 46be 66bb 2fbd a954 bfbe 00b2 a03d
00000370: a242 94bd e430 6fbe 25a2 0d3e f022 d3bd
00000380: fa45 88be 8ce3 a0be 63c0 6b3d 78ea e43c
00000390: 526b eab9 737f ad3d 8a9e 83be 7211 1a3e
000003a0: 8389 2fbc 955c b8bd 6bc3 2f3e 5bd3 823d
000003b0: 496d 1b3e 3d05 09be 5d32 9c3d dbca 37be
000003c0: a185 043f 3796 503f 6539 1cbf 753f a73d
000003d0: af1c b9be 7ada 2f3d d167 05bf 6ac7 3fbd
000003e0: 0308 073e cd40 a33d 26d8 153e 4fae 0c3e
000003f0: 256b 293d d857 0f3b dc2c b2bc 038f 283f
